app/src/main/assets/model_regresi_mpu6050.tflite (tflite, 4960 bytes, 5 tensors)

arith.constant f4 [1, 16]
00000000: 1818 8abf d17c 993f ec9b 293f 874f 773f
00000010: 68de 42bf 9427 2cbf 1a95 46be e141 8c3f
00000020: 7d58 9f3f 9b81 56bf bd4e 5fbf 669d 253f
00000030: fc99 8b3f ca8a 4fbf fa35 22bf ac45 26be
-1.0788603 1.1991216 0.6625354 0.96605724 -0.76120615 -0.6724789 -0.19392815 1.0957605
1.244888 -0.8379151 -0.8722952 0.64693296 1.0906367 -0.8107115 -0.6336361 -0.16237515

arith.constant1 f4 [16, 32]
00000000: 2771 043f bb1c 803d 1361 843d ff16 b93e
00000010: 2f1d 023f 7a52 483d b484 d83d c57f babe
00000020: 979d 0a3e 3abb f0bd 595d 3c3e fa29 003f
00000030: 566f 163f 34cd b93e 38b5 2cbe f1ac 3b3f
00000040: 95b4 1b3f 59a9 8b3e 2c6d e6bd e728 f9be
00000050: 2c47 a03e 421e 33bf 4a53 453b c142 95be
00000060: 51fd c73d f9e7 8a3e b9d7 0e3f 53f3 863e
00000070: a84b 1d3f fdc6 c83e 7c57 283f d6c7 1c3f
00000080: d5c8 153e 8655 d1be e8ae f5be e4a0 033c
00000090: a7ce b6be 8073 cbbe 25c4 ddbd 3f0b 8dbc
000000a0: 9335 51be 001c 47bc 4046 3dbf 6542 e9be
000000b0: 1079 f9bd 7b41 5d3e 1c14 8c3e 3918 6a3e
000000c0: 7887 44be f9b0 dabd 1416 6d3e 675b 5abe
000000d0: b41e 74bc 4200 433f 8e52 d13d 8d8d 88be
000000e0: 2223 acbe 4902 df3e 32d9 aabe 11fe 023e
000000f0: eb6b 303f 5928 f0bd a450 3cbd 71f2 d13e
00000100: f87c b6be cb0d 6f3f 02c9 5e3f 0be7 bbbd
00000110: 429e 8ebe e303 7e3f f6b0 343f d48e 7a3f
00000120: 1647 5b3f 97ba 023f 7bd8 39be 84df f0be
00000130: 41b1 f43e 3313 1a3f b74b a63e d600 373e
00000140: 80b5 8abe ecfd 623f 20c0 b83e 813b 883f
00000150: 09f9 13be a1fb cc3e 9435 583f c92b 3d3f
00000160: 2b5b 353f b43c 443e f3b3 c8bd 5237 283d
00000170: b84f 8dbd 70ae 083f 54cd 8fbe 51d2 06be
00000180: 8b92 1ebf 1b73 7f3f 1473 5f3f 2ae2 86be
00000190: b323 88be 83c1 c43e 8220 2d3f d282 363f
000001a0: d7e5 e43e 810c 1a3f dcc4 bcbc 616c 55be
000001b0: 1d6e b43e 99f4 973e aa01 1f3e 5381 1a3e
000001c0: fe1f 25bf 8c12 363f e1fa 233f 20c5 173f
000001d0: b38e 56be d1cf b73d e74e 2c3f cd7c 613f
000001e0: b977 043f f496 65be 67a8 463c 5078 22be
000001f0: 8f79 39bf 57d4 1a3f 9a24 83be 0ddb 0e3d
00000200: 9a7c 5a3f 16bc b03d ca30 b0be 5646 d93e
00000210: 9098 303e 2a2f 5b3e 79fc c7be 2818 d2bc
00000220: a22b 783e e89e 803e 7361 023f a437 363f
00000230: 6922 3d3e 941d a83e 2918 5fbe fdf2 113f
00000240: 0e29 1e3e e03a 1bbe deab 9fbd 3ae5 6abe
00000250: 023b 123f 80a5 b8be 65cc 883b cd6d 96be
00000260: 6d3b 273f b736 093f 27ee 3c3f 8448 c23e
00000270: f316 223f 7f9b 3f3f 9b82 f83e d1e3 a83e
00000280: c80b 283f 0e7a 79be c10e 583e b0d4 d93e
00000290: 3001 513e 497c 8cbd ca08 d7be 7d52 8a3e
000002a0: 639e 0dbe 8500 71bc bc46 1c3f 9ec1 db3e
000002b0: 953b 7d3e f4cd 1c3f 7c0a 99bc 3d74 653f
000002c0: 349e 313f 25d6 efbd d4ab f1bb d8fd acbe
000002d0: 4226 273f 5f84 30be 7714 6ebe 4c18 4b3e
000002e0: 62a8 d63e 6b5c 783e ed41 383f b564 af3e
000002f0: d570 243f 6706 3c3f a77b 2d3e eac0 9c3e
00000300: 6979 323e 8b21 823e bbb0 d6bd cf32 66be
00000310: 3bb5 223e 1e04 b3be 6d30 b93b e94f 56be
00000320: 8369 b5be e92d 9abe fe86 12bd 23f3 99be
00000330: 0407 17be 9f3e afbd c3cb 7fbe 6613 acbe
00000340: ce88 43be e9fe 8d3e 8e7a e4bd 2d85 423e
00000350: a7c4 9c3e 9a73 903e f17f 8bbc 7f60 d7bd
00000360: 115e 3c3d 78b0 28be 1252 a3be 3242 cfbd
00000370: 10be 84be b09f 543d 6fc8 21be 7459 73bd
00000380: 2217 3b3e f5bf 7a3f 9843 fa3e 39a2 94be
00000390: eca9 333c 0b85 353f f388 603f de44 bb3e
000003a0: 8da6 623e 0670 0f3f 99ed 95be 94a8 e63d
000003b0: e25f 213e e716 ca3d 0d6b 01bf 38d3 afbd
000003c0: 4b86 86be be42 4d3f d4c4 583f 7e1f b43e
000003d0: 4a12 3cbe da82 1e3f 1565 493f 39db b43e
000003e0: 8a61 db3e 7b04 863e 2a55 a03e f7b9 0dbf
000003f0: 21bc f7be 5259 8ebe 3b73 03bf a2f6 66bf
0.51735157 0.0625548 0.06463828 0.36150357 0.5082578 0.04890678 0.10572186 -0.36425605
0.13536678 -0.11754461 0.18394984 0.5006405 0.58763635 0.3628937 -0.16866004 0.7331076
0.6082242 0.2727764 -0.11251292 -0.4866402 0.313043 -0.69968045 0.0030109459 -0.29152492
0.09765113 0.27130106 0.55797917 0.26357517 0.6144357 0.39214316 0.6575849 0.61242425
0.14627393 -0.40885562 -0.47985005 0.008033965 -0.35704538 -0.39736557 -0.10828427 -0.017217277
-0.20430593 -0.012152672 -0.7393532 -0.45558468 -0.12181294 0.2160701 0.27359092 0.22860803
-0.19192302 -0.10678286 0.23152953 -0.2132393 -0.014899898 0.7617227 0.10220824 -0.26670495
-0.33620554 0.4355643 -0.33368832 0.12792231 0.6891467 -0.11726446 -0.045975342 0.4100528
-0.3564222 0.9338042 0.87025464 -0.09174927 -0.27855116 0.9922468 0.7058252 0.9787419
0.85655344 0.51065964 -0.18148987 -0.4704553 0.47791484 0.60185546 0.3247964 0.17871413
-0.270916 0.88668704 0.3608408 1.0643159 -0.14450468 0.40035728 0.84456754 0.73894936
0.70842236 0.19163781 -0.097999476 0.041068383 -0.06899971 0.5339117 -0.2808634 -0.13166167
-0.61942357 0.9978501 0.8728497 -0.26344424 -0.26589736 0.38428888 0.6762773 0.71293366
0.44706604 0.6017533 -0.023043089 -0.20842125 0.3524026 0.296788 0.15527979 0.15088396
-0.6450194 0.7112205 0.64054686 0.59285164 -0.20952873 0.08975185 0.67307895 0.88081056
0.5174518 -0.22420865 0.012125111 -0.15866208 -0.7245111 0.60480255 -0.25613862 0.03487687
0.85346377 0.086296245 -0.34412223 0.42436475 0.17245698 0.2140471 -0.3905981 -0.025646284
0.24235395 0.25121236 0.50929946 0.7117865 0.18470158 0.32835066 -0.2178656 0.57011396
0.15445349 -0.15159178 -0.07796453 -0.22939005 0.5712129 -0.36063766 0.0041747564 -0.29380646
0.6532505 0.53599113 0.7380089 0.3794595 0.6331627 0.74846643 0.48537144 0.3298631
0.65642977 -0.24362966 0.21099378 0.4254508 0.20410609 -0.06859643 -0.41998893 0.2701606
-0.13829951 -0.0147095965 0.6104543 0.42921156 0.2472976 0.6125176 -0.018681757 0.8963049
0.69382024 -0.11710767 -0.00737522 -0.33787417 0.6529275 -0.17237996 -0.23249994 0.19833487
0.4192534 0.24254005 0.71975595 0.3425652 0.6423467 0.7344727 0.16941701 0.30615932
0.17429127 0.25416216 -0.104829274 -0.2248032 0.15889446 -0.3496408 0.0056515248 -0.20928921
-0.35432062 -0.30113152 -0.03577327 -0.3006831 -0.1474877 -0.08556866 -0.24980073 -0.3360855
-0.19095156 0.27733544 -0.11156188 0.18996115 0.30618784 0.28213197 -0.01702878 -0.10516452
0.045988146 -0.16473567 -0.31898552 -0.10120048 -0.25926256 0.051910102 -0.15799116 -0.05941148
0.18270543 0.97949153 0.48879695 -0.29030016 0.0109658055 0.7090613 0.8770897 0.3657598
0.22133847 0.5603031 -0.29282835 0.112626225 0.15759233 0.098676495 -0.5055397 -0.08585209
-0.26274332 0.80179965 0.84675336 0.35180277 -0.18366352 0.61918414 0.78669864 0.35323504
0.42847854 0.26175293 0.31314975 -0.55361885 -0.48385718 -0.2780252 -0.513477 -0.9022008

sequential_1/dense_1_2/BiasAdd/ReadVariableOp f4 [16]
00000000: 8412 9f3e 0df8 823e 97c5 393f 6b4a 073f
00000010: 78cd 9e3e da73 c73e 4b5b ecbd 3ed2 de3e
00000020: ac17 df3e e801 ae3e 6916 af3e c0f3 1f3f
00000030: 78c0 30bd b445 c63e 71df 6d3e 1912 fbbc
0.31068814 0.25579873 0.72567123 0.5284793 0.31016135 0.38955575 -0.1154085 0.43519777
0.43572748 0.3398583 0.34196785 0.6248131 -0.043152303 0.38725054 0.23229767 -0.030648278

sequential_1/dense_1/BiasAdd/ReadVariableOp f4 [32]
00000000: 7801 f93e 6f89 473f 5d62 183f a577 c33e
00000010: cb07 b53e e90e 703e 8a6e f03e e90c 2d3f
00000020: a30f 043f a3a9 133f bb8a 863e be54 ff3d
00000030: 522b 2b3f 05bc 113f b830 d93d 10dc 183f
00000040: 2986 143f 1273 dd3e 805b fe3e d481 833e
00000050: e46a 873e 5c36 04bf 8470 3a3f 7d0e 4b3f
00000060: 4e4e 433f 1223 873e 72e6 de3e bb22 213f
00000070: dda3 123f d032 053f 5a9d ed3e 413d 093f
0.48633933 0.7794408 0.5952509 0.3817722 0.35357508 0.23443188 0.46959335 0.67597824
0.5158636 0.5768072 0.26277718 0.12467335 0.66862977 0.5692752 0.106049955 0.5971079
0.5801721 0.43251854 0.49679184 0.25684988 0.2644874 -0.51645446 0.72827935 0.7931898
0.7629136 0.26393944 0.4353519 0.6294362 0.57281286 0.5203066 0.46409112 0.5360909

sequential_1/dense_1/MatMul f4 [32, 6]
00000000: 2673 2cbf aa81 72bd 863a afbe 7696 ee3c
00000010: 8abf 27bf a587 bcbc 216c 443f 9f25 c3bd
00000020: b608 ecbd e659 cf3e 2136 0d3e b486 6cbe
00000030: 1186 373f d9a3 493e 27dd 1dbf d485 aebe
00000040: 8490 463d 52fe 68be 3a00 2bbf a264 c6bd
00000050: 5dbc c7be ea27 733d 8f9b 8d3e 8503 aabe
00000060: 5b2c 16bf b4a6 96be 17ec f9be cb9a 003e
00000070: d437 c53e dcda 70be f954 723f 2840 b43a
00000080: 2b3e 31bf bc76 053e 2028 5e3d a5cf b03d
00000090: 7bc5 583f 4641 813c a294 5abe d7db 2b3e
000000a0: a398 98be 34d8 afbe ebbd 573f 5b8d 7d3e
000000b0: ad14 30bf f7dc 753e a73f c33e 109c a93e
000000c0: e452 3f3f 7024 8a3e 7cb4 25bf 1ed0 bd3c
000000d0: c786 033f 2894 843e 03c3 463f 053c e33e
000000e0: a5c5 d7bd cb43 a53d 2555 56be e64a 3bbe
000000f0: 6e36 4cbf a732 6fbe 1f62 1dbf d3c8 eebe
00000100: 1729 33be 77fd 923b 97ca 41bf 557e e53d
00000110: f97f 10bf 31a1 23be bb86 21be b70c 94bd
00000120: 3596 37be da43 043f 66dc 54bf 73bf b93e
00000130: 6eb7 98be 3ec4 f33e 72ea f9bd 07b0 2dbf
00000140: 6a0e 99be c5b8 6f3e 87d4 af3e b8b1 6cbe
00000150: 77d3 f9be da6c 473d a8c1 3e3e 1606 ecbe
00000160: 660e 083f a77f 863e 5951 00bf f4ee dbbe
00000170: 8225 a1be 7621 f13e 6eec b6be ef15 8abd
00000180: c768 5abf e2fd 9f3c 822a c8be ebe8 d33c
00000190: 98d5 1abf 4ceb fbbd 9967 5e3f 2a73 893e
000001a0: fa45 13bf 100a f6be 411a 94be 8faa aebe
000001b0: e330 2c3f a8f5 0ebe d519 52be febf 453c
000001c0: 82a8 01bf 5264 b83c e9e6 013f 497b 42be
000001d0: 4e54 03bf fb64 123d 0047 123f 7ea6 76be
000001e0: d785 32bf 5a1d b93e 1a8a a3be 6829 6fbe
000001f0: be13 98be 1b7b 20bc 2f34 0dbf 554a 3a3d
00000200: 53cc fa3e 0449 b33e a329 27bf 0a6e a2be
00000210: 6a64 393f 293b b03e 01fa 5e3c 8ab4 cc3d
00000220: 2552 5b3e 9550 203f d952 3f3f 7442 673e
00000230: 6cc7 1dbf 3215 8e3e 90d7 ef3e 8eee fe3e
00000240: 6555 d73e 3085 ab3e 3ca6 e2be 1dd3 853d
00000250: cab9 b8be f4f8 773e cf9d 7dbe 5734 cebe
00000260: 7b89 113d 0743 283e 3100 b8be 2cb6 053e
00000270: 3e5d 34bf 9dd7 cf3e 9413 00bf fe6d e53e
00000280: 074f cfbe e841 2bbd be1a 37bf ba09 e93d
00000290: c4b6 dbbd 80e5 4e3e 9638 d33e 17dc d93e
000002a0: 3844 07bf 8e80 d53e ae0a a13e d3b2 5e3e
000002b0: bca9 16bf d2f3 62be 7305 d4be fb78 99be
000002c0: ff62 1abf 7193 d2bd 971b ca3e 8fc0 b1bd
000002d0: 1212 48bf 1de9 9abd 2641 e4be 9eca 803b
000002e0: 2758 893e 234f 8c3e e339 19bf 666e e53e
000002f0: 041a ce3b 28b7 5b3c 01f8 0d3e 1b5b 883e
-0.673632 -0.05920569 -0.34224337 0.02912448 -0.6552664 -0.0230139 0.7672749 -0.0952866
-0.11525099 0.40498275 0.1379018 -0.2309826 0.71688944 0.19691409 -0.61665577 -0.34086478
0.048477665 -0.22753266 -0.6679722 -0.09687163 -0.39010897 0.059364237 0.27657744 -0.3320581
-0.5866143 -0.2942406 -0.48812935 0.12559049 0.38519156 -0.23520988 0.9466091 0.001375203
-0.69235486 0.13033575 0.054237485 0.08633355 0.8467633 0.015778195 -0.21345761 0.16783081
-0.29803953 -0.34344637 0.84274167 0.24760954 -0.6878155 0.24010073 0.381345 0.3312688
0.74735856 0.26980925 -0.6472852 0.023170527 0.5137753 0.25894284 0.77641314 0.4438173
-0.105357446 0.08069571 -0.20930918 -0.1829029 -0.79770553 -0.23359166 -0.61477846 -0.46637592
-0.17496143 0.004485782 -0.7569975 0.112057365 -0.5644527 -0.15979458 -0.15774052 -0.07228988
-0.17928393 0.51666033 -0.831488 0.36278877 -0.29827446 0.47610658 -0.1220292 -0.6784672
-0.2989381 0.23410328 0.34341833 -0.2311467 -0.48794147 0.048687793 0.18628561 -0.46098393
0.5314697 0.26269266 -0.50124127 -0.42955744 -0.3147393 0.4709584 -0.35727257 -0.06742465
-0.8531613 0.01953024 -0.3909493 0.0258679 -0.6048217 -0.12300739 0.8687683 0.26845676
-0.5752865 -0.48054552 -0.2892628 -0.341145 0.67262095 -0.13960898 -0.20517667 0.0120697
-0.5064775 0.022508774 0.50742966 -0.18992342 -0.51300514 0.035740834 0.5713959 -0.24086949
-0.69735473 0.36155206 -0.319413 -0.23355639 -0.29702562 -0.009794976 -0.5515775 0.045481045
0.48984012 0.35016644 -0.6529791 -0.31724578 0.72418845 0.34420136 0.01360941 0.099953726
0.21418054 0.6262296 0.7473579 0.22583944 -0.6163242 0.27750546 0.4684415 0.49791378
0.42057338 0.33500051 -0.44267452 0.06534407 -0.36079246 0.24216062 -0.2476723 -0.40274307
0.035531502 0.16431819 -0.35937646 0.13057774 -0.70454776 0.40594187 -0.50029874 0.4481048
-0.4048998 -0.0418109 -0.7152518 0.11378808 -0.10728219 0.20204735 0.4125411 0.42550728
-0.5283847 0.41699642 0.3145346 0.21747904 -0.58852744 -0.22163323 -0.41410407 -0.29975113
-0.60307306 -0.102820285 0.39474174 -0.08679306 -0.78152573 -0.07563994 -0.44580954 0.003930404
0.26825067 0.27404127 -0.59853953 0.4481079 0.0062897224 0.013410367 0.13864137 0.26632008
